…
,"metadata":{"execution":{"iopub.status.busy":"2024-10-06T11:19:04.161340Z","iopub.execute_input":"2024-10-06T11:19:04.162344Z","iopub.status.idle":"2024-10-06T11:19:04.212327Z","shell.execute_reply.started":"2024-10-06T11:19:04.162297Z","shell.execute_reply":"2024-10-06T11:19:04.211130Z"},"trusted":true},"execution_count":56,"outputs":[{"name":"stdout","text":"----------------------------------------------------------------\n        Layer (type)               Output Shape         Param #\n================================================================\n            Linear-1                   [-1, 64]             512\n       BatchNorm1d-2                   [-1, 64]             128\n            Linear-3                   [-1, 16]           1,040\n            Linear-4                    [-1, 4]              68\n       BatchNorm1d-5                    [-1, 4]               8\n            Linear-6                    [-1, 1]               5\n            Linear-7                    [-1, 1]               5\n================================================================\nTotal params: 1,766\nTrainable params: 1,766\nNon-trainable params: 0\n----------------------------------------------------------------\nInput size (MB): 0.00\nForward/backward pass size (MB): 0.00\nParams size (MB): 0.01\nEstimated Total Size (MB): 0.01\n----------------------------------------------------------------\n","output_
…
